…
1352/1352 - 2s - loss: 0.0258 - accuracy: 0.9942 - val_loss: 0.0276 - val_accuracy: 0.9939 - 2s/epoch - 2ms/step
Epoch 20/20
1352/1352 - 2s - loss: 0.0252 - accuracy: 0.9943 - val_loss: 0.0280 - val_accuracy: 0.9939 - 2s/epoch - 2ms/step
2816/2816 [==============================] - 1s 487us/step
Baseline Error: 0.61% 52.67231297492981
{'loss': [… 'accuracy': [… 'val_loss': [… 'val_accuracy': [… CNN------------------------------------------------

Model: "sequential_1"
_________________________________________________________________
 Layer (type)                Output Shape              Param #
=================================================================
 conv2d (Conv2D)             (None, 16, 16, 8)         80

 max_pooling2d (MaxPooling2D  (None, 8, 8, 8)          0
 )

 conv2d_1 (Conv2D)           (None, 8, 8, 16)          1168

 max_pooling2d_1 (MaxPooling  (None, 4, 4, 16)         0
 2D)

 flatten (Flatten)           (None, 256)               0

 dense_2 (Dense)             (None, 256)               65792

 dense_3 (Dense)             (None, 128)               32896

 dense_4 (Dense)             (None, 12)                1548

=================================================================
Total params: 101,484
Trainable params: 101,484
Non-trainable params: 0
_________________________________________________________________
Epoch 1/25
2112/2112 - 13s - loss: 0.2080 - accuracy: 0.9483 - val_loss: 0.1051 - val_accuracy: 0.9741 - 13s/epoch - 6ms/step
Epoch 2/25
2112/2112 - 12s - loss: 0.0838 - accuracy: 0.9785 - val_loss: 0.0761 - val_accuracy: 0.9804 - 12s/epoch - 6ms/step
…
