…
 [1.5339046e-04 3.0874014e-01 7.1117395e-10 ... 0.0000000e+00
  0.0000000e+00 0.0000000e+00]
 [1.0415067e-04 2.7065134e-01 1.8113159e-11 ... 0.0000000e+00
  0.0000000e+00 0.0000000e+00]
 [2.3566243e-04 5.1073170e-01 1.5779136e-09 ... 0.0000000e+00
  0.0000000e+00 0.0000000e+00]], shape=(2612, 256), dtype=float32)
tf.Tensor([0 0 0 ... 2 2 2], shape=(2612,), dtype=int32)
Model: "sequential"
_________________________________________________________________
 Layer (type)                Output Shape              Param #
=================================================================
 conv2d (Conv2D)             (None, 16, 16, 8)         80

 max_pooling2d (MaxPooling2D  (None, 8, 8, 8)          0
 )

 conv2d_1 (Conv2D)           (None, 8, 8, 16)          1168

 max_pooling2d_1 (MaxPooling  (None, 4, 4, 16)         0
 2D)

 flatten (Flatten)           (None, 256)               0

 dense (Dense)               (None, 256)               65792

 dense_1 (Dense)             (None, 128)               32896

 dense_2 (Dense)             (None, 8)                 1032

=================================================================
Total params: 100,968
Trainable params: 100,968
Non-trainable params: 0
_________________________________________________________________
2023-02-11 20:10:11.072310: W tensorflow/tsl/platform/profile_utils/cpu_utils.cc:128] Failed to get CPU frequency: 0 Hz
Epoch 1/25
2097/2097 - 18s - loss: 0.1701 - accuracy: 0.9563 - val_loss: 0.0835 - val_accuracy: 0.9782 - 18s/epoch - 9ms/step
…
