…
1352/1352 - 2s - loss: 0.0257 - accuracy: 0.9944 - val_loss: 0.0284 - val_accuracy: 0.9937 - 2s/epoch - 2ms/step
Epoch 20/20
1352/1352 - 2s - loss: 0.0251 - accuracy: 0.9945 - val_loss: 0.0275 - val_accuracy: 0.9940 - 2s/epoch - 2ms/step
2816/2816 [==============================] - 1s 486us/step
Baseline Error: 0.60% 52.54782176017761
{'loss': [… 'accuracy': [… 'val_loss': [… 'val_accuracy': [… CNN------------------------------------------------

Model: "sequential_1"
_________________________________________________________________
 Layer (type)                Output Shape              Param #
=================================================================
 conv2d (Conv2D)             (None, 16, 16, 8)         80

 max_pooling2d (MaxPooling2D  (None, 8, 8, 8)          0
 )

 conv2d_1 (Conv2D)           (None, 8, 8, 16)          1168

 max_pooling2d_1 (MaxPooling  (None, 4, 4, 16)         0
 2D)

 flatten (Flatten)           (None, 256)               0

 dense_2 (Dense)             (None, 256)               65792

 dense_3 (Dense)             (None, 128)               32896

 dense_4 (Dense)             (None, 12)                1548

=================================================================
Total params: 101,484
Trainable params: 101,484
Non-trainable params: 0
_________________________________________________________________
Epoch 1/25
2112/2112 - 13s - loss: 0.1967 - accuracy: 0.9513 - val_loss: 0.1042 - val_accuracy: 0.9748 - 13s/epoch - 6ms/step
Epoch 2/25
2112/2112 - 13s - loss: 0.0874 - accuracy: 0.9774 - val_loss: 0.0772 - val_accuracy: 0.9809 - 13s/epoch - 6ms/step
…
